src/therapist/logic/tools/fine_tuned_whisper-base/adapter_model.safetensors (safetensors, 926288 bytes, 74 tensors)

base_model.model.encoder.embed_positions.lora_embedding_A f4 [4, 1500]
0.0 0.0 0.0 0.0 0.0 0.0 0.0 0.0
0.0 0.0 0.0 0.0 0.0 0.0 0.0 0.0
0.0 0.0 0.0 0.0 0.0 0.0 0.0 0.0
0.0 0.0 0.0 0.0 0.0 0.0 0.0 0.0
0.0 0.0 0.0 0.0 0.0 0.0 0.0 0.0
0.0 0.0 0.0 0.0 0.0 0.0 0.0 0.0
0.0 0.0 0.0 0.0 0.0 0.0 0.0 0.0
0.0 0.0 0.0 0.0 0.0 0.0 0.0 0.0
0.0 0.0 0.0 0.0 0.0 0.0 0.0 0.0
0.0 0.0 0.0 0.0 0.0 0.0 0.0 0.0
0.0 0.0 0.0 0.0 0.0 0.0 0.0 0.0
0.0 0.0 0.0 0.0 0.0 0.0 0.0 0.0
0.0 0.0 0.0 0.0 0.0 0.0 0.0 0.0
0.0 0.0 0.0 0.0 0.0 0.0 0.0 0.0
0.0 0.0 0.0 0.0 0.0 0.0 0.0 0.0
0.0 0.0 0.0 0.0 0.0 0.0 0.0 0.0
0.0 0.0 0.0 0.0 0.0 0.0 0.0 0.0
0.0 0.0 0.0 0.0 0.0 0.0 0.0 0.0
0.0 0.0 0.0 0.0 0.0 0.0 0.0 0.0
0.0 0.0 0.0 0.0 0.0 0.0 0.0 0.0
0.0 0.0 0.0 0.0 0.0 0.0 0.0 0.0
0.0 0.0 0.0 0.0 0.0 0.0 0.0 0.0
0.0 0.0 0.0 0.0 0.0 0.0 0.0 0.0
0.0 0.0 0.0 0.0 0.0 0.0 0.0 0.0
0.0 0.0 0.0 0.0 0.0 0.0 0.0 0.0
0.0 0.0 0.0 0.0 0.0 0.0 0.0 0.0
0.0 0.0 0.0 0.0 0.0 0.0 0.0 0.0
0.0 0.0 0.0 0.0 0.0 0.0 0.0 0.0
0.0 0.0 0.0 0.0 0.0 0.0 0.0 0.0
0.0 0.0 0.0 0.0 0.0 0.0 0.0 0.0
0.0 0.0 0.0 0.0 0.0 0.0 0.0 0.0
0.0 0.0 0.0 0.0 0.0 0.0 0.0 0.0
00000000: 0000 0000 0000 0000 0000 0000 0000 0000
00000010: 0000 0000 0000 0000 0000 0000 0000 0000
00000020: 0000 0000 0000 0000 0000 0000 0000 0000
00000030: 0000 0000 0000 0000 0000 0000 0000 0000
00000040: 0000 0000 0000 0000 0000 0000 0000 0000
00000050: 0000 0000 0000 0000 0000 0000 0000 0000
00000060: 0000 0000 0000 0000 0000 0000 0000 0000
00000070: 0000 0000 0000 0000 0000 0000 0000 0000
00000080: 0000 0000 0000 0000 0000 0000 0000 0000
00000090: 0000 0000 0000 0000 0000 0000 0000 0000
000000a0: 0000 0000 0000 0000 0000 0000 0000 0000
000000b0: 0000 0000 0000 0000 0000 0000 0000 0000
000000c0: 0000 0000 0000 0000 0000 0000 0000 0000
000000d0: 0000 0000 0000 0000 0000 0000 0000 0000
000000e0: 0000 0000 0000 0000 0000 0000 0000 0000
000000f0: 0000 0000 0000 0000 0000 0000 0000 0000
00000100: 0000 0000 0000 0000 0000 0000 0000 0000
00000110: 0000 0000 0000 0000 0000 0000 0000 0000
00000120: 0000 0000 0000 0000 0000 0000 0000 0000
00000130: 0000 0000 0000 0000 0000 0000 0000 0000
00000140: 0000 0000 0000 0000 0000 0000 0000 0000
00000150: 0000 0000 0000 0000 0000 0000 0000 0000
00000160: 0000 0000 0000 0000 0000 0000 0000 0000
00000170: 0000 0000 0000 0000 0000 0000 0000 0000
00000180: 0000 0000 0000 0000 0000 0000 0000 0000
00000190: 0000 0000 0000 0000 0000 0000 0000 0000
000001a0: 0000 0000 0000 0000 0000 0000 0000 0000
000001b0: 0000 0000 0000 0000 0000 0000 0000 0000
000001c0: 0000 0000 0000 0000 0000 0000 0000 0000
000001d0: 0000 0000 0000 0000 0000 0000 0000 0000
000001e0: 0000 0000 0000 0000 0000 0000 0000 0000
000001f0: 0000 0000 0000 0000 0000 0000 0000 0000
00000200: 0000 0000 0000 0000 0000 0000 0000 0000
00000210: 0000 0000 0000 0000 0000 0000 0000 0000
00000220: 0000 0000 0000 0000 0000 0000 0000 0000
00000230: 0000 0000 0000 0000 0000 0000 0000 0000
00000240: 0000 0000 0000 0000 0000 0000 0000 0000
00000250: 0000 0000 0000 0000 0000 0000 0000 0000
00000260: 0000 0000 0000 0000 0000 0000 0000 0000
00000270: 0000 0000 0000 0000 0000 0000 0000 0000
00000280: 0000 0000 0000 0000 0000 0000 0000 0000
00000290: 0000 0000 0000 0000 0000 0000 0000 0000
000002a0: 0000 0000 0000 0000 0000 0000 0000 0000
000002b0: 0000 0000 0000 0000 0000 0000 0000 0000
000002c0: 0000 0000 0000 0000 0000 0000 0000 0000
000002d0: 0000 0000 0000 0000 0000 0000 0000 0000
000002e0: 0000 0000 0000 0000 0000 0000 0000 0000
000002f0: 0000 0000 0000 0000 0000 0000 0000 0000
00000300: 0000 0000 0000 0000 0000 0000 0000 0000
00000310: 0000 0000 0000 0000 0000 0000 0000 0000
00000320: 0000 0000 0000 0000 0000 0000 0000 0000
00000330: 0000 0000 0000 0000 0000 0000 0000 0000
00000340: 0000 0000 0000 0000 0000 0000 0000 0000
00000350: 0000 0000 0000 0000 0000 0000 0000 0000
00000360: 0000 0000 0000 0000 0000 0000 0000 0000
00000370: 0000 0000 0000 0000 0000 0000 0000 0000
00000380: 0000 0000 0000 0000 0000 0000 0000 0000
00000390: 0000 0000 0000 0000 0000 0000 0000 0000
000003a0: 0000 0000 0000 0000 0000 0000 0000 0000
000003b0: 0000 0000 0000 0000 0000 0000 0000 0000
000003c0: 0000 0000 0000 0000 0000 0000 0000 0000
000003d0: 0000 0000 0000 0000 0000 0000 0000 0000
000003e0: 0000 0000 0000 0000 0000 0000 0000 0000
000003f0: 0000 0000 0000 0000 0000 0000 0000 0000

base_model.model.encoder.embed_positions.lora_embedding_B f4 [512, 4]
0.31793043 0.062448308 0.5260169 -0.2836495 -1.0175889 -1.0025293 -1.0219615 -0.69754887
1.3263863 0.49072602 -0.9886987 1.8166125 -0.03357595 0.15175733 1.4154185 1.3270905
-0.8578567 -1.0769008 -1.8495657 1.8826236 0.028782884 0.19454828 -0.31625122 2.6261377
-0.10206367 -0.92161673 0.26099965 -0.16500457 1.0574951 -0.7221359 0.49022287 -0.96871233
-1.610932 -0.1493242 -0.023422739 -1.0956495 0.33003104 -0.5640746 -0.22617595 1.251026
0.9978326 0.3076343 0.056522824 -0.794341 0.044485524 -0.19769405 0.22180465 -0.90863764
-0.3222062 -0.3717165 -0.7684033 -0.010931859 -0.20426448 -0.77231836 0.10237851 -1.2692109
1.2053634 -0.19724777 -2.2488167 0.8820344 -1.3917365 -0.458324 -1.1898388 -0.06673261
0.21907443 -0.72895736 0.23310302 0.89228606 -0.42851636 -0.29568172 1.1398411 -0.081567146
0.77293223 -0.46780017 -0.23497954 1.0687578 0.5382499 0.09962536 -0.38251105 0.53246653
-0.022739789 0.124729216 -0.45718014 -1.0101538 0.7619865 0.8761325 -0.87819135 0.199758
1.2623204 0.6357876 0.20798124 1.6256448 0.43343613 0.052569017 -1.6702518 -0.8920129
1.5451647 -0.5727826 1.2676204 -0.40589702 0.85809654 -1.4194617 0.37725788 -0.56357706
0.6924712 0.8266507 -0.23637749 0.5658672 -1.7440395 1.8968779 0.4278114 1.6287411
0.8241635 -1.147333 1.1368716 1.216315 0.35691023 -1.4902327 -0.96231496 0.08367483
-1.2569698 -1.5789839 0.3176549 1.3101815 -0.3052298 -0.31335592 0.17180027 -0.44268334
-0.106919445 0.44136304 -0.5202539 1.6948662 1.4708074 -1.6003034 -1.5121709 0.80245227
0.58940184 -0.8576526 1.0072285 0.8212371 1.4895601 1.1625036 -0.9821473 -0.51916385
0.5382822 0.07246786 0.7888429 -0.027876783 -0.14625442 -1.6381587 0.062271137 1.5308256
-1.3161259 -0.48362812 -0.17868297 0.1125967 -0.6801929 0.303242 -1.5000064 -0.4231432
-0.98310393 0.24928892 -0.8827345 -0.10954007 0.08507531 -1.3525368 -0.4102359 -0.5546693
-0.65833646 1.7268329 -0.16148598 1.1590729 -0.057825018 -0.98974454 0.6298504 0.9937783
-0.7633379 1.3825165 -0.68897045 0.52496976 0.24971251 0.3592973 0.9473881 -0.15778582
-1.2092949 -0.7042936 -0.27808726 -0.13614161 1.1171625 -1.5611663 0.21542181 -0.037705876
-0.41569996 1.4261904 0.3041912 0.99748594 0.75870717 0.19144994 -1.5149977 0.66152275
-0.4514385 -1.044626 -0.57048297 0.04127413 -0.15777083 0.23681673 1.1157779 -1.3294762
-0.054530717 0.5306205 -0.11179757 -0.9829607 0.7902257 -0.23390506 1.2616136 -1.1865252
0.2070619 0.26798147 -0.24148344 0.48949215 0.2316022 -0.64189464 0.68004435 -2.0984395
-1.1250279 0.73820275 -0.6218752 0.06359089 -0.5856366 -0.35358065 0.3931191 1.3423921
0.9356764 -0.6448336 -0.49414846 -0.50300115 0.14777634 -0.01653761 -0.31252012 1.7852037
-0.03358893 0.5907612 -1.5244124 -2.0694125 -0.39038777 0.6623706 -0.37879738 -0.34735417
0.33361244 -0.47344357 -0.46809056 -0.7419565 -0.39356893 1.8500922 0.2991231 0.09577045
00000000: c7c7 a23e ccc9 7f3d 0ba9 063f 823a 91be
00000010: 5a40 82bf e152 80bf a2cf 82bf 9092 32bf
00000020: 07c7 a93f 7140 fb3e 5c1b 7dbf c286 e83f
00000030: ef86 09bd 4666 1b3e 6f2c b53f 1ade a93f
00000040: 7f9c 5bbf e3d7 89bf 92be ecbf cff9 f03f
00000050: 15ca eb3c aa37 473e aeeb a1be a412 2840
00000060: c206 d1bd 13ef 6bbf bfa1 853e f5f6 28be
00000070: 005c 873f e6dd 38bf 7efe fa3e 88fd 77bf
00000080: 0533 cebf 71e8 18be 0be1 bfbc 3e3e 8cbf
00000090: d4f9 a83e 3167 10bf ab9a 67be 9f21 a03f
000000a0: f571 7f3f 3e82 9d3e 7a84 673d ef59 4bbf
000000b0: 7436 363d 4f70 4abe c220 633e 7a9c 68bf
000000c0: 36f8 a4be a051 bebe 14b6 44bf 8a1b 33bc
000000d0: b52a 51be a8b6 45bf d3ab d13d 8175 a2bf
000000e0: 5949 9a3f 52fb 49be 9dec 0fc0 02cd 613f
000000f0: 6c24 b2bf 71a9 eabe a34c 98bf 1bab 88bd
00000100: 0c55 603e f39c 3abf 8fb2 6e3e dc6c 643f
00000110: 7f66 dbbe 9863 97be 50e6 913f ad0c a7bd
00000120: e3de 453f 8183 efbe 7a9e 70be 0ecd 883f
00000130: bfca 093f 6108 cc3d 7dd8 c3be ba4f 083f
00000140: cb48 babc 0872 ff3d 8413 eabe b84c 81bf
00000150: 8c11 433f 384a 603f 26d1 60bf 5c8d 4c3e
00000160: b793 a13f fac2 223f 09f9 543e 2115 d03f
00000170: 57eb dd3e 9c52 573d d0ca d5bf f55a 64bf
00000180: f5c7 c53f e1a1 12bf 6341 a23f bcd1 cfbe
00000190: 37ac 5b3f ecb0 b5bf f227 c13e 9646 10bf
000001a0: cb45 313f 619f 533f f10c 72be acdc 103f
000001b0: b03c dfbf e5cc f23f 190a db3e 977a d03f
000001c0: 61fc 523f cfdb 92bf 0285 913f 36b0 9b3f
000001d0: f0bc b63e f2bf bebf 465a 76bf b65d ab3d
000001e0: 63e4 a0bf 251c cabf aaa3 a23e 07b4 a73f
000001f0: 1547 9cbe 3070 a0be 69ec 2f3e 64a7 e2be
00000200: 95f8 dabd 56fa e13e 5c2f 05bf 60f1 d83f
00000210: 6b43 bc3f bed6 ccbf d18e c1bf 836d 4d3f
00000220: 0ae3 163f 1f8f 5bbf ddec 803f 983c 523f
00000230: e8a9 be3f ebcc 943f 016e 7bbf ece7 04bf
00000240: ddcc 093f 086a 943d 9cf1 493f da5d e4bc
00000250: b8c3 15be 2faf d1bf 0510 7f3d 18f2 c33f
00000260: d076 a8bf 1b9e f7be abf8 36be 1999 e63d
00000270: 1f21 2ebf 8942 9b3e 3600 c0bf 3aa6 d8be
00000280: b3ac 7bbf 9845 7f3e e3fa 61bf 8b56 e0bd
00000290: f73b ae3d ed1f adbf 710a d2be cffe 0dbf
000002a0: bd88 28bf dc08 dd3f 955c 25be 805c 943f
000002b0: edd9 6cbd e65f 7dbf e03d 213f 4168 7e3f
000002c0: 1d6a 43bf 4df6 b03f 5e60 30bf 6b64 063f
000002d0: a3b4 7f3e d1f5 b73e 0788 723f 9b92 21be
000002e0: 2dca 9abf 964c 34bf 7461 8ebe b568 0bbe
000002f0: 2eff 8e3f 4cd4 c7bf 8997 5c3e 7a71 1abd
00000300: a0d6 d4be 688d b63f f3be 9b3e 3d5b 7f3f
00000310: a23a 423f 740b 443e 72eb c1bf 8e59 293f
00000320: f222 e7be 4eb6 85bf 2c0b 12bf 100f 293d
00000330: ad8e 21be 1680 723e cfd1 8e3f 472c aabf
00000340: 9a5b 5fbd bfd6 073f 20f6 e4bd 50a3 7bbf
00000350: 3b4c 4a3f cf84 6fbe 8e7c a13f 0fe0 97bf
00000360: 0908 543e de34 893e 6f47 77be b79e fa3e
00000370: 2129 6d3e 3553 24bf 6317 2e3f d54c 06c0
00000380: ea00 90bf dbfa 3c3f 3733 1fbf f13b 823d
00000390: 48ec 15bf 8608 b5be e846 c93e 81d3 ab3f
000003a0: 7d88 6f3f d113 25bf 0701 fdbe afc4 00bf
000003b0: ae52 173e e279 87bc a302 a0be 8e81 e43f
000003c0: 8c94 09bd 203c 173f f21f c3bf 4171 04c0
000003d0: e8e0 c7be 1f91 293f bbf1 c1be 68d8 b1be
000003e0: 40cf aa3e 3267 f2be 91a9 efbe dcf0 3dbf
000003f0: de81 c9be d2cf ec3f aa26 993e 4c23 c43d

base_model.model.encoder.layers.0.fc1.lora_A.weight f4 [4, 512]
-0.05452439 0.034894228 0.02286663 -0.006628693 0.049540672 0.015711812 0.010004648 -0.008683418
0.0057628024 0.013112048 0.07723771 0.036423866 -0.058208138 0.010062315 -0.02270871 -0.031726334
0.0332174 0.07347333 -0.0017338863 -0.04354332 -0.027144182 0.027406098 0.043064628 -0.06455831
-0.018198958 -0.007782206 -0.009666267 0.021895887 -0.046803646 0.0085040415 0.026784396 -0.03787751
-0.057606123 0.002003189 0.0011468489 -0.019370463 -0.0017903444 -0.047773093 0.04858468 0.026663236
-0.012545359 0.029173141 0.056562632 0.039494023 0.028471934 -0.004776628 0.04858494 -0.009234059
-0.00556143 -0.0042535467 0.044595517 0.05317296 -0.023606632 0.0070504807 0.011548133 -0.07401956
-0.009069585 -0.013689925 -0.0009894115 0.04337409 0.018148243 -0.010082332 -0.024456397 -0.02514582
-0.009797665 0.032830514 0.0065955957 0.035715908 -0.033631388 0.01915182 0.09593375 -0.028003205
0.005295447 -0.018493345 -0.03539454 -0.08178336 -0.063140064 0.012143823 0.069813535 -0.028551973
-0.018977117 -0.027487596 -0.001963833 0.05075321 0.04996312 -0.027437476 -0.049149964 0.051861722
-0.013963451 0.030909015 -0.010021706 0.06873527 -0.03361747 0.043746796 0.010370172 -0.069305286
0.034539226 -0.03416185 -0.0564556 0.07885384 0.061987046 0.04644025 0.04502334 -0.04691633
-0.021605026 0.01817217 0.0051712138 -0.026368823 0.019066334 0.04978184 0.024297364 -0.0025057965
-0.04333561 0.01928829 -0.04642813 -0.020227393 -0.05621255 0.015715277 -0.022323767 0.007535831
0.05381453 0.011633618 0.017170068 -0.06648571 0.06468282 0.023497062 -0.017866487 -0.04060022
0.029690908 0.034752868 0.011855755 -0.03190921 -0.0025102724 -0.0093307085 -0.01519311 -0.014494109
-0.017360194 0.010674088 -0.008008706 0.00031320428 -0.019342994 0.01326994 0.02474176 0.06883856
0.010067524 0.06917219 0.020840265 -0.02754761 -0.016964875 -0.015345116 -0.01231151 -0.05179816
-0.043751027 -0.016012982 -0.004012368 0.01702314 -0.014887524 -0.03702306 0.01380004 -0.05497902
-0.017814476 0.023244662 -0.025476402 -0.04750247 -0.015815428 -0.002269272 -0.07517202 0.041417673
-0.010676645 0.03151189 -0.0040608756 0.012647119 0.009358899 -0.027850065 -0.003531705 0.026951537
0.010810178 -0.05540438 -0.013019206 -0.02583787 0.050548587 -0.022496387 -0.040796954 -0.048735347
-0.046471406 -0.015349969 0.013014986 -0.016223513 -0.03476995 0.044486593 0.02691254 0.049148615
-0.017159836 -0.031078545 0.0040856055 -0.010039652 -0.0308245 -0.016318765 -0.014167349 -0.032041635
0.0048764735 0.07802958 -0.023883175 0.026693223 -0.032266367 -0.0033754662 -0.025798658 -0.06373186
0.004980541 0.024853723 -0.043305088 -0.0675879 -0.03255679 -0.008076629 0.004528941 -0.022127345
0.06804988 -0.026325187 -0.0060602585 -0.032941952 -0.017097782 -0.008744282 0.0020150333 0.0030947553
0.023134472 0.06839654 -0.0027448426 0.018847968 0.058401655 0.02030285 -0.064387605 0.013997717
0.021785818 0.005089002 0.036094274 -0.057822086 -0.013072756 -0.040432174 0.03556317 0.020538045
-0.043917716 0.017349914 0.0009720249 0.0125679355 -0.06524296 0.07198433 -0.013609317 -0.00849654
0.07951617 -0.02461044 -0.06980509 0.006448857 -0.022837862 0.05056661 -0.020288957 0.00525487
00000000: f754 5fbd 40ed 0e3d cd52 bb3c 8235 d9bb
00000010: 29eb 4a3d 0fb6 803c 89ea 233c e544 0ebc
00000020: e4d5 bc3b ead3 563c ce2e 9e3d 3131 153d
00000030: a86b 6ebd 68dc 243c 9e07 babc 79f3 01bd
00000040: f80e 083d 2f79 963d 9243 e3ba 7b5a 32bd
00000050: 7a5d debc c182 e03c 8964 303d 2637 84bd
00000060: fb15 95bc e001 ffbb 435f 1ebc 015f b33c
00000070: 2eb5 3fbd 8954 0b3c f36a db3c 7325 1bbd
00000080: 66f4 6bbd ef47 033b dd51 963a ceae 9ebc
00000090: fda9 eaba b8ad 43bd bb00 473d dc6c da3c
000000a0: 0d8b 4dbc 83fc ee3c 38ae 673d 7cc4 213d
000000b0: f93d e93c 4385 9cbb 0101 473d 734a 17bc
000000c0: a83c b6bb 5661 8bbb caa9 363d e4cb 593d
000000d0: b262 c1bc b807 e73b 6134 3d3c 9197 97bd
000000e0: 9998 14bc b54b 60bc 24af 81ba 08a9 313d
000000f0: a0ab 943c 5e30 25bc c858 c8bc 9bfe cdbc
00000100: 6386 20bc 4a79 063d de1f d83b d84a 123d
00000110: 11c1 09bd 47e4 9c3c ea78 c43d fa66 e5bc
00000120: 6e85 ad3b 5b7f 97bc ddf9 10bd 097e a7bd
00000130: 944f 81bd e3f6 463c 66fa 8e3d d4e5 e9bc
00000140: e675 9bbc ab2d e1bc a7b3 00bb 99e2 4f3d
00000150: 21a6 4c3d 8fc4 e0bc 7951 49bd f56c 543d
00000160: f5c6 64bc e734 fd3c 1532 24bc 14c5 8c3d
00000170: 79b2 09bd d72f 333d a7e7 293c eeef 8dbd
00000180: 0179 0d3d 4ced 0bbd fd3d 67bd 1f7e a13d
00000190: 21e6 7d3d 2238 3e3d 656a 383d 562b 40bd
000001a0: 06fd b0bc cddd 943c 4973 a93b 6e03 d8bc
000001b0: 0031 9c3c 0be8 4b3d 440b c73c 4a38 24bb
000001c0: ae80 31bd 7a02 9e3c 6c2b 3ebd ebb3 a5bc
000001d0: 213f 66bd 53bd 803c 55e0 b6bc 22ef f63b
000001e0: a06c 5c3d ee9a 3e3c 3ea8 8c3c a929 88bd
000001f0: 6d78 843d e97c c03c bd5c 92bc 6b4c 26bd
00000200: 593a f33c 0659 0e3d a43e 423c 3bb3 02bd
00000210: 6283 24bb d4df 18bc 86ec 78bc b378 6dbc
00000220: f736 8ebc 5fe2 2e3c f336 03bc 9135 a439
00000230: 3375 9ebc 2a6a 593c 3baf ca3c 3bfb 8c3d
00000240: 42f2 243c 26aa 8d3d 34b9 aa3c 87ab e1bc
00000250: ecf9 8abc 156a 7bbc 37b6 49bc 4f2a 54bd
00000260: 4734 33bd a82d 83bc 2f7a 83bb 1d74 8b3c
00000270: cdea 73bc 7ea5 17bd 9019 623c ae31 61bd
00000280: aaef 91bc 976b be3c e3b3 d0bc f391 42bd
00000290: 5b8f 81bc 11b8 14bb caf3 99bd 94a5 293d
000002a0: 18ed 2ebc 9d12 013d 1811 85bb dd35 4f3c
000002b0: 1156 193c d225 e4bc 2d74 67bb 78c9 dc3c
000002c0: 2c1d 313c b4ef 62bd 824e 55bc f1a9 d3bc
000002d0: 090c 4f3d 584a b8bc b51a 27bd b79e 47bd
000002e0: cd58 3ebd 707e 7bbc cf3c 553c 2ce7 84bc
000002f0: ef6a 0ebd 9337 363d b077 dc3c 0f50 493d
00000300: c992 8cbc 6f98 febc 8be0 853b 5a7d 24bc
00000310: a983 fcbc eeae 85bc 2b1e 68bc 173e 03bd
00000320: d3ca 9f3b f9cd 9f3d a6a6 c3bc bfab da3c
00000330: bd29 04bd ed36 5dbb b557 d3bc d985 82bd
00000340: ce33 a33b 099a cb3c ad60 31bd 866b 8abd
00000350: 455a 05bd d653 04bc 8367 943b 6844 b5bc
00000360: bc5d 8b3d eba7 d7bc 2295 c6bb 24ee 06bd
00000370: a610 8cbc 2d44 0fbc a60e 043b 61d1 4a3b
00000380: 8184 bd3c 7c13 8c3d d1e2 33bb 0e67 9a3c
00000390: 9336 6f3d 2a52 a63c a6dd 83bd ae56 653c
000003a0: 2c78 b23c a5c1 a63b 97d7 133d dad6 6cbd
000003b0: 1d2f 56bc 359c 25bd b0aa 113d 673f a83c
000003c0: 10e3 33bd 6821 8e3c 7dcf 7e3a bee9 4d3c
000003d0: 1a9e 85bd 856c 933d 9df9 5ebc 1235 0bbc
000003e0: 60d9 a23d d59b c9bc f9f5 8ebd ef50 d33b
000003f0: 7816 bbbc ef1e 4f3d 0735 a6bc 0b31 ac3b

base_model.model.encoder.layers.0.fc1.lora_B.weight f4 [2048, 4]
0.010569833 0.0043250415 -0.025238499 0.0021474038 0.017912185 -0.026516078 -0.0068845986 0.023892235
0.023589816 0.00027428105 -0.004716411 0.02002644 0.0047237724 0.0025401057 0.015243014 -0.0046665436
-0.046858456 0.053402685 -0.018314803 0.032928154 0.01760321 0.027864238 -0.029554222 -0.019084807
-0.0038388586 0.0004699123 -0.026672078 0.022274688 0.00215822 0.00389842 -0.018658182 -0.008722311
0.008464552 -0.030719724 -0.012523122 0.012655536 0.013709163 0.02718139 0.0038140286 0.027274499
-0.017343557 0.01799596 0.00042455608 -0.004946217 -0.05170591 0.021515848 0.020987015 -0.0033442886
-0.017819302 0.0072653424 0.010853883 0.008292492 0.0017756211 0.01270216 -0.003844992 0.025839642
0.028942086 -0.011066497 0.016226456 0.008333366 -0.015482087 0.015627181 -0.0022168402 -0.0011835429
-0.033809606 -0.00071078213 0.00046195695 0.023220956 0.015799785 -0.005010371 -0.0138228275 -0.002561561
0.012045552 0.001269399 -0.007088459 -0.027506148 0.0021997008 0.008708622 0.00241743 -0.016044274
0.03673808 -0.028436853 0.040505514 0.021422662 0.029820303 -0.041431136 0.017478451 -0.0024733413
-0.013609236 0.0020517441 -0.015983483 -0.0248663 1.3572266e-05 -0.004635286 -0.004243061 0.012984678
-0.014813791 0.027009256 -0.0057373266 -0.021645226 -0.02113026 0.03145257 -0.013534615 -0.015607684
-0.03452928 -0.01066112 0.024417294 -0.0069278725 0.020068273 -0.010411711 -0.022567244 0.01089767
0.016557673 -0.005626769 0.02334515 -0.024665017 0.016576856 -0.029933393 0.0013894562 0.019215945
-0.0050756764 0.0043438817 0.010960073 -0.015210512 0.015217207 -0.013357698 -0.038509462 -0.023621567
0.023114732 -0.003885243 0.004023151 0.023462702 -0.02082224 -0.0049517807 -0.020456122 -0.006876805
0.017220665 -0.014078586 -0.027298456 0.0036531836 0.0031540825 0.022532929 0.03653702 -0.015305479
0.0142485 -0.019161282 0.018643707 -0.0021875175 0.018544864 -0.006634103 -0.026644686 0.0036900386
0.014911535 -0.016333375 -0.038332075 -0.023138784 -0.009057505 0.0232155 0.039352287 -0.021628099
0.00075979915 -0.00016239366 0.010490198 0.013154216 0.036920086 -0.0023416954 0.011272965 -0.0069814418
0.004244746 -0.036946673 0.00074007263 0.000111929694 -0.0143198995 -0.009574749 -0.011453166 -0.012177695
0.04232111 -0.016335048 0.042659182 0.009839541 -0.00857381 0.02503847 -0.026860576 0.01926388
-0.020523397 0.0049564037 -0.02411142 0.0073909936 -0.0018504048 0.018816967 0.039032865 -0.0149859525
0.017175695 0.0013498936 0.011504856 -0.004624314 0.008619611 -0.01441696 -0.011111063 -0.014975278
0.011508374 -0.018887263 -0.0068888133 -0.010806269 0.015958847 -0.020175647 -0.0021214793 0.027665636
0.019921627 0.00010492226 0.012058495 -0.021010678 -0.011129318 -0.030296797 -0.025922865 0.011581666
0.025141926 -0.0048328163 0.0096188085 0.011669283 -0.0030630357 -0.009654939 0.008598442 0.027285384
-0.023982344 0.041058518 0.010302053 -0.02472646 -0.016677484 0.020261427 0.009131738 0.00089441246
0.02468787 -0.024381053 0.02587707 0.003188197 -0.028722107 0.034584682 0.011884021 0.0029690538
-0.025372505 0.0112206675 -0.0032401811 -0.0072049154 0.044185426 -0.03336108 0.017175987 -0.009943647
0.01303735 0.0113543 -0.007871955 -0.0161113 -0.0059958138 -0.0027401755 -0.0016642732 -0.0039881915
00000000: 182d 2d3c 14b9 8d3b f8c0 cebc 75bb 0c3b
00000010: 93bc 923c 3f38 d9bc 3398 e1bb a6b9 c33c
00000020: 6e3f c13c 61cd 8f39 1f8c 9abb 7d0e a43c
00000030: e0c9 9a3b e777 263b d6bd 793c cee9 98bb
00000040: a7ee 3fbd c6bc 5a3d ed08 96bc acdf 063d
00000050: 9b34 903c 8b43 e43c b21b f2bc be57 9cbc
00000060: 5c95 7bbb 905e f639 677f dabc 6879 b63c
00000070: ec70 0d3b a27c 7f3b 0bd9 98bc 06e8 0ebc
00000080: e8ae 0a3c eea7 fbbc c82d 4dbc 2a59 4f3c
00000090: 669c 603c 82ab de3c c8f4 793b c56e df3c
000000a0: 1314 8ebc 436c 933c f496 de39 e013 a2bb
000000b0: 94c9 53bd 0142 b03c f6ec ab3c da2b 5bbb
000000c0: c9f9 91bc 1c12 ee3b 7cd4 313c 3bdd 073c
000000d0: f5bb e83a b81c 503c 43fc 7bbb a8ad d33c
000000e0: f417 ed3c 4150 35bc 58ed 843c ac88 083c
000000f0: 94a8 7dbc 9304 803c 6848 11bb 1c21 9bba
00000100: f17b 0abd c853 3aba d032 f239 e039 be3c
00000110: 8d6e 813c 0a2e a4bb 2479 62bc dddf 27bb
00000120: b55a 453c f661 a63a 4e46 e8bb 9354 e1bc
00000130: db28 103b 9cae 0e3c bf6d 1e3b 486f 83bc
00000140: ab7a 163d 67f4 e8bc 1ce9 253d 947e af3c
00000150: b549 f43c b2b3 29bd f82e 8f3c c817 22bb
00000160: 46f9 5ebc 8e76 063b cbef 82bc 69b4 cbbc
00000170: 70b4 6337 99e3 97bb 6009 8bbb b0bd 543c
00000180: 8bb5 72bc 8442 dd3c 2f00 bcbb 5451 b1bc
00000190: 5e19 adbc 69d4 003d 4ac0 5dbc 5fb7 7fbc
000001a0: 936e 0dbd faab 2ebc c706 c83c 3503 e3bb
000001b0: 3866 a43c e295 2abc f1de b8bc 248c 323c
000001c0: f5a3 873c c260 b8bb 543e bf3c 4a0e cabc
000001d0: 30cc 873c e036 f5bc 6a1e b63a c26a 9d3c
000001e0: dc51 a6bb 1f57 8e3b e191 333c 8335 79bc
000001f0: 9851 793c 3fda 5abc 19bc 1dbd 0482 c1bc
00000200: 1b5b bd3c 909f 7ebb a3d4 833b da34 c03c
00000210: 6793 aabc 8c42 a2bb 9993 a7bc d256 e1bb
00000220: 5a12 8d3c dfa9 66bc 03a1 dfbc 406a 6f3b
00000230: b9b4 4e3b fa96 b83c d8a7 153d d5c3 7abc
00000240: 8a72 693c 1ff8 9cbc b0ba 983c 745c 0fbb
00000250: 66eb 973c e462 d9bb f545 dabc 93d4 713b
00000260: 834f 743c 92cd 85bc 1802 1dbd 8c8d bdbc
00000270: ee65 14bc 6f2e be3c dd2f 213d 692d b1bc
00000280: 422d 473a 3748 2ab9 14df 2b3c c884 573c
00000290: 8439 173d 2177 19bb 3eb2 383c 94c4 e4bb
000002a0: 8317 8b3b 6555 17bd 6f01 423a ccbb ea38
000002b0: 039e 6abc 68df 1cbc 0fa6 3bbc f484 47bc
000002c0: e658 2d3d 14d1 85bc 65bb 2e3d 0736 213c
000002d0: 2a79 0cbc 7a1d cd3c b60a dcbc 49cf 9d3c
000002e0: af20 a8bc 5469 a23b 5085 c5bc 2630 f23b
000002f0: 4889 f2ba 0a26 9a3c ede0 1f3d a487 75bc
00000300: 0bb4 8c3c eaee b03a dd7e 3c3c 8f87 97bb
00000310: 4539 0d3c 1d35 6cbc 2d0b 36bc de5a 75bc
00000320: 9e8d 3c3c 76b9 9abc 8ebb e1bb c70c 31bc
00000330: 21bc 823c 6647 a5bc 8408 0bbb 0ba3 e23c
00000340: ae32 a33c b609 dc38 fe90 453c 961e acbc
00000350: be57 36bc fd30 f8bc 305c d4bc 07c1 3d3c
00000360: 71f6 cd3c 9a5c 9ebb 3598 1d3c 8530 3f3c
00000370: 36bd 48bb c02f 1ebc 7be0 0c3c 9985 df3c
00000380: 9f76 c4bc fa2c 283d f1c9 283c 258f cabc
00000390: 389f 88bc 4bfb a53c 499d 153c 0177 6a3a
000003a0: 373e ca3c c6ba c7bc 26fc d33c 12f1 503b
000003b0: a04a ebbc aba8 0d3d 32b5 423c 7594 423b
000003c0: 00da cfbc e4d6 373c 3859 54bb 3617 ecbb
000003d0: c7fb 343d a1a5 08bd a8b4 8c3c aeea 22bc
000003e0: 9c9a 553c 6307 3a3c 5ff9 00bc d8fb 83bc
000003f0: 8878 c4bb 8494 33bb be23 daba 60af 82bb

base_model.model.encoder.layers.0.fc2.lora_A.weight f4 [4, 2048]
-0.001339828 0.021881083 0.021404551 0.030006513 0.012382947 -0.02079426 0.0031595787 -0.023728713
0.0068758805 -0.029297935 -0.00086828787 0.030674944 0.022604687 0.01110416 -0.0076052346 -0.018711792
-0.02186022 -0.029440206 0.0150791695 0.005048208 -0.00039018388 0.048744615 0.02708424 -0.027215054
0.017266728 0.022244604 0.015954163 0.021311043 0.0014432959 -0.015219217 -0.016467549 0.011403439
0.014789296 0.031384874 0.004526582 -0.0016458074 0.010950637 0.023721695 -0.0030622615 0.010979054
0.0075066015 -0.0046367752 -0.028819488 0.026711874 -0.0148921115 -0.022537567 -0.006875617 -0.015728913
-0.024801552 -0.02783264 -0.04248856 0.01636438 -0.004692913 -0.00077024434 -0.008855055 -0.021794954
-0.03079145 -0.00024688043 -0.019407311 0.008880081 0.024622323 -0.017894648 -0.0016888464 -0.044408467
0.014080073 -0.022585887 -0.0017737914 0.024380792 -0.004107727 -0.033780936 -0.018995598 -0.032100756
0.02547412 0.006701995 0.00569647 0.01757223 -0.00827389 0.017408881 -0.010485382 -0.005876084
0.0304522 0.0074241697 -0.021913078 -0.01445354 0.006477309 0.010753369 -0.0098233605 0.0136154415
0.007355911 0.00247815 -0.050111383 -0.051693924 0.026034385 -0.0006266587 0.025480533 0.0022376867
-0.040539056 0.0075804433 -0.011479423 -0.0043933177 -0.024583356 -0.020571562 0.026140679 0.021986097
0.033424824 0.0010962338 0.026286425 -0.026737088 -0.03455726 -0.022066321 0.007616184 -0.009972325
-0.02728172 0.0022730788 -0.03157617 -0.006855041 -0.018584374 -0.011383468 0.030624382 -0.046829313
-0.003946807 0.01201067 0.010579475 -0.015665775 -0.014729465 -0.014241261 -0.021654028 -0.022275867
-0.023679728 0.006001776 -0.019023372 -0.007885601 -0.0075617456 -0.028605012 -0.011081241 -0.040075045
0.012801067 0.00039766863 -0.018762495 -0.0012268609 0.0024170207 -0.024868958 0.02771497 0.045245897
0.012998112 -0.0056749186 -0.005750315 -0.009811311 -0.0055128126 -0.03036347 -0.018097471 -0.0085968515
-0.011782372 -0.026585022 0.015906911 0.0057821022 0.005551643 -0.007585041 -0.007435419 0.021009907
0.015361553 0.0037682075 -0.0133358715 -0.006049899 0.033001132 0.02163213 0.032628164 0.047745965
0.014861606 0.03663508 0.0065648686 0.015248836 -0.0041239485 0.013242848 0.01369963 0.030821038
-0.07280308 0.009011907 0.024063317 0.016630528 0.010752724 -0.017229987 -0.0034553767 0.042851776
-0.011223998 -0.011289227 0.022457762 -0.010188079 0.03272403 -0.009195222 0.011555112 -0.03416952
-0.03671715 -0.022195138 0.025388218 0.022791814 -0.04809802 -0.009087526 -0.03448368 -0.01609285
-0.00425563 -0.0013217566 -0.004735347 -0.007553345 0.051980466 0.0024704144 0.013973941 -0.0015999996
0.0067436583 -0.009452672 -0.0038214189 -0.011621885 -0.012866997 -0.014827002 -0.0036633334 -0.0017827968
0.014676667 -0.020919845 -0.026644524 -0.01688291 -0.011855543 0.003809307 0.0028584555 0.003984917
-0.010708101 -0.010790317 0.03441845 -0.019441383 -0.029518604 -0.023884494 -0.014097217 0.0015160899
0.0021975825 -0.005767649 0.038547467 0.011601178 0.030439287 0.014249778 0.03761978 -0.0079373075
-0.0053050965 0.008689325 -0.013028437 -0.0035323915 0.00010549686 -0.0146148605 -0.01600994 0.023610566
-0.017831622 0.036517892 0.009761486 0.0066678883 -0.027238928 -0.005707149 0.025310732 0.012809535
00000000: 2b9d afba f53f b33c 9958 af3c 38d0 f53c
00000010: d8e1 4a3c b958 aabc ef10 4f3b b862 c2bc
00000020: 114f e13b 3902 f0bc d09d 63ba 054a fb3c
00000030: 772d b93c 39ee 353c 5535 f9bb 7949 99bc
00000040: 3414 b3bc 962c f1bc 9f0e 773c 706b a53b
00000050: 9891 ccb9 6fa8 473d c5df dd3c 1bf2 debc
00000060: f472 8d3c 513a b63c 4eb2 823c 7f94 ae3c
00000070: f92c bd3a 065a 79bc f4e6 86bc 7dd5 3a3c
00000080: ce4e 723c 6d8d 003d b953 943b 22b8 d7ba
00000090: 4d6a 333c 0054 c23c 39b0 48bb 7de1 333c
000000a0: f0f9 f53b 17f0 97bb d916 ecbc dcd2 da3c
000000b0: 0bfe 73bc b4a0 b8bc db4c e1bb ecd9 80bc
000000c0: a02c cbbc 4701 e4bc 7c08 2ebd 980e 863c
000000d0: 02c7 99bb 39ea 49ba cb14 11bc 558b b2bc
000000e0: 5a3e fcbc bb6f 81b9 15fc 9ebc c27d 113c
000000f0: c1b4 c93c cc97 92bc 485c ddba a7e5 35bd
00000100: 1bb0 663c 0a06 b9bc 907e e8ba 3aba c73c
00000110: 1d9a 86bb e15d 0abd a89c 9bbc 157c 03bd
00000120: 1aaf d03c 699c db3b 74a9 ba3b a3f3 8f3c
00000130: 368f 07bc 129d 8e3c e1ca 2bbc 2a8c c0bb
00000140: e476 f93c 7346 f33b 0e83 b3bc 8ace 6cbc
00000150: 9b3f d43b e62e 303c 29f2 20bc 4d13 5f3c
00000160: db09 f13b 7568 223b 9841 4dbd 02bd 53bd
00000170: 1046 d53c 5a46 24ba 8dbc d03c 27a6 123b
00000180: 480c 26bd 5e65 f83b 3114 3cbc d2f5 8fbb
00000190: 0963 c9bc b185 a8bc fa24 d63c 301c b43c
000001a0: 78e8 083d 81af 8f3a a156 d73c bd07 dbbc
000001b0: ea8b 0dbd 6ec4 b4bc 2f91 f93b f662 23bc
000001c0: ea7d dfbc eff7 143b 0456 01bd 40a0 e0bb
000001d0: 423e 98bc ba81 3abc fcdf fa3c 18d0 3fbd
000001e0: 3754 81bb 67c8 443c 8955 2d3c 8355 80bc
000001f0: db53 71bc 2e54 69bc ca63 b1bc e17b b6bc
00000200: fdfb c1bc 8caa c43b e7d6 9bbc 9c32 01bc
00000210: 85c8 f7bb 0f55 eabc 188e 35bc bb25 24bd
00000220: 91bb 513c 2e7e d039 ceb3 99bc 9fce a0ba
00000230: e166 1e3b fcb9 cbbc 810a e33c c353 393d
00000240: 08f6 543c abf4 b9bb 236d bcbb 9fbf 20bc
00000250: d3a4 b4bb d0bc f8bc 2641 94bc cfd9 0cbc
00000260: da0a 41bc d5c8 d9bc 364f 823c ca77 bd3b
00000270: 8fea b53b f08b f8bb d1a4 f3bb f81c ac3c
00000280: 06af 7b3c 08f4 763b b37e 5abc 3b3e c6bb
00000290: 322c 073d dd35 b13c 1ca5 053d 4691 433d
000002a0: 187e 733c aa0e 163d 1c1e d73b 41d6 793c
000002b0: 3022 87bb 88f8 583c 6a74 603c 677c fc3c
000002c0: c819 95bd ada6 133c 6f20 c53c bf3c 883c
000002d0: 312c 303c e725 8dbc 9a73 62bb 5885 2f3d
000002e0: dce4 37bc 73f6 38bc 57f9 b73c e7eb 26bc
000002f0: a209 063d 8ea7 16bc a751 3d3c 57f5 0bbd
00000300: b964 16bd 94d2 b5bc f4fa cf3c e6b5 ba3c
00000310: 6e02 45bd d9e3 14bc c23e 0dbd 27d5 83bc
00000320: d072 8bbb cb3e adba f82a 9bbb 0d82 f7bb
00000330: 78e9 543d ade6 213b f5f2 643c 14b7 d1ba
00000340: e8f9 dc3b 61df 1abc c570 7abb b869 3ebc
00000350: 19d0 52bc f4ec 72bc 8914 70bb bcac e9ba
00000360: 6776 703c 1860 abbc 9e45 dabc 074e 8abc
00000370: c03d 42bc 91a5 793b ed54 3b3b e893 823b
00000380: 0871 2fbc dfc9 30bc 5cfa 0c3d 8943 9fbc
00000390: 00d1 f1bc 6aa9 c3bc 03f8 66bc 89b7 c63a
000003a0: 5105 103b 8cfe bcbb f3e3 1d3d de12 3e3c
000003b0: d05b f93c e777 693c 3317 1a3d 7b0b 02bc
000003c0: 60d6 adbb ac5d 0e3c 3a75 55bc b27f 67bb
000003d0: 323e dd38 2b73 6fbc 4727 83bc f26a c13c
000003e0: 9f13 92bc c993 153d a4ee 1f3c 4d7e da3b
000003f0: 2c24 dfbc 0903 bbbb 7458 cf3c 15df 513c

base_model.model.encoder.layers.0.fc2.lora_B.weight f4 [512, 4]
-0.015237006 0.0068834582 -0.011545925 -0.00677089 -0.006430116 -0.005950082 -0.010939017 0.0053903204
0.005508945 0.012379013 -0.025917042 -0.013253597 0.0018591955 -0.00943653 -0.027741404 0.013902299
-0.041712414 0.009606187 -0.0029368822 -0.014327683 0.0061628013 0.008463097 -0.029434405 -0.03084598
-0.021589557 0.011073084 0.004418283 -0.012434346 -0.01703298 -0.0063645174 -0.02197486 -0.024557902
0.0036591836 0.009835003 0.02820251 0.011339647 -0.0036063455 0.067917004 0.024102617 0.029387193
-0.026130712 0.009202816 0.00057001744 -0.018254042 0.012220411 0.001697301 -0.01524282 -0.00074995303
0.038793474 0.020473693 -0.004171975 -0.006760319 0.012540804 -0.008637964 -0.027899876 -0.032650672
-0.017097706 -0.013265251 -0.0059064277 -0.018467322 -0.022541799 0.040212892 0.019573322 0.05331751
-0.0101663275 0.024870014 0.028048001 0.012100966 0.029971624 0.010219136 0.0065508084 -0.022488719
-0.004663437 0.012607568 0.014719996 0.021335464 -0.049458843 -0.005625482 0.0009159301 0.0027293223
0.009763238 -0.016474258 -0.009282991 -0.017314421 -0.003866109 0.010285357 -0.022334602 -0.002310982
0.030129144 0.030512718 0.035729986 0.006882548 0.014570198 0.03437776 0.005796556 0.021072567
-0.021909572 -0.025508141 0.0042364784 0.022912404 0.026217045 -0.008806973 -0.010134806 -0.03148407
-0.016891018 0.018706033 0.00048389606 -0.0039855 0.0057847225 -0.005137232 -0.01134924 -6.7912606e-07
0.027558975 0.019969486 -0.011715623 -0.040037807 0.00020257643 0.011272353 0.011910992 0.022328006
0.014319889 0.03328755 0.0057444395 0.020168789 0.0101153515 -0.007917307 -0.02611182 -0.011533641
0.0018815707 -0.022852212 -0.018418027 -0.03155155 0.016284907 0.04013073 0.00021490191 -0.014038941
0.01103047 0.0044742357 -0.01980022 -0.008506806 0.015964082 -0.0016264041 -0.0053940895 0.026487865
-0.0037258738 0.0063472516 0.000157789 0.00062329066 -0.020011557 0.0036615098 -0.010151355 -0.027243748
-0.013547977 -0.02601925 0.014836962 0.010345051 -0.0031157758 0.033356786 -0.02582811 0.005533774
-0.01242751 0.019929513 0.027767278 0.024557475 0.0059394846 0.0003551663 -0.0005391789 -0.01424222
0.03206262 -0.031691123 0.00012690121 -0.005803977 -0.03006005 0.041899707 0.015338227 -0.0035154626
0.00859305 0.007591485 0.01097633 0.006698073 0.0014401901 0.007653557 0.0026261285 -0.009010232
0.0026752409 -0.004880965 0.014443067 0.013571469 -0.021385366 0.022841096 0.008138762 0.007295312
-0.0063765193 0.003265649 -0.012524322 -0.009374851 -0.012264256 0.00688304 0.008803519 -0.010530382
0.014287525 0.020001752 0.0010369277 -0.014601525 -0.01113186 -0.013798323 0.022191145 -0.0027414795
-0.022380851 -0.009977372 0.012379024 0.0046240008 -0.013702525 -0.00443554 0.016835274 0.015718885
-0.008228235 -0.021230485 -0.020735221 0.0017616962 0.010131497 -0.03031599 0.00029861106 -0.009252701
-0.007823804 0.026404005 0.0006252677 -0.013905085 0.016384998 0.0038720844 0.010954338 0.00019097296
0.013899923 0.006273316 0.027788043 0.027937314 -0.025499964 -0.005443903 -0.012682359 -0.029017858
0.047925778 -0.025262157 0.024237849 0.023378765 -0.021461472 0.007157553 0.008967852 0.013049726
-0.008176955 -0.027954334 0.024468549 0.007527208 -0.00755617 -0.020289227 -0.028085014 -0.030566279
00000000: a3a4 79bc a28e e13b 1f2b 3dbc 58de ddbb
00000010: b9b3 d2bb e8f8 c2bb 9039 33bc 49a1 b03b
00000020: 6184 b43b 58d1 4a3c fa4f d4bc 9d25 59bc
00000030: 40b0 f33a ad9b 1abc f141 e3bc 78c6 633c
00000040: a3da 2abd 4563 1d3c b578 40bb a8be 6abc
00000050: 53f1 c93b cda8 0a3c 6c20 f1bc b5b0 fcbc
00000060: 95dc b0bc e16b 353c 3ec7 903b 6db9 4bbc
00000070: c088 8bbc 718d d0bb 9f04 b4bc a72d c9bc
00000080: eace 6f3b fe22 213c f308 e73c edc9 393c
00000090: 7058 6cbb 1218 8b3d da72 c53c 69bd f03c
000000a0: 1310 d6bc 68c7 163c 396d 153a 8089 95bc
000000b0: 1e38 483c f977 de3a 05bd 79bc 7f98 44ba
000000c0: e8e5 1e3d 72b8 a73c 10b5 88bb ab85 ddbb
000000d0: f277 4d3c 3f86 0dbc 488e e4bc b6bc 05bd
000000e0: 7d10 8cbc 7f56 59bc b58a c1bb c848 97bc
000000f0: 94a9 b8bc 46b6 243d 3b58 a03c 7663 5a3d
00000100: ab90 26bc 33bc cb3c ecc4 e53c 2143 463c
00000110: 0d87 f53c 2a6e 273c 2aa8 d63b 433a b8bc
00000120: bfcf 98bb f98f 4e3c 232c 713c b6c7 ae3c
00000130: 5b95 4abd f755 b8bb 071b 703a 6ede 323b
00000140: fdf5 1f3c 06f5 86bc b017 18bc f9d6 8dbc
00000150: 8c5e 7dbb ea83 283c 0ef7 b6bc d873 17bb
00000160: 65d1 f63c cff5 f93c 9b59 123d ff86 e13b
00000170: d7b7 6e3c b2cf 0c3d 09f1 bd3b 60a0 ac3c
00000180: b47b b3bc 73f6 d0bc 28d2 8a3b cbb2 bb3c
00000190: 21c5 d63c 1f4b 10bc 750c 26bc 71f5 00bd
000001a0: 085f 8abc 653d 993c 6eb3 fd39 cc98 82bb
000001b0: c58d bd3b 3a56 a8bb 2af2 39bc 304d 36b5
000001c0: 5cc3 e13c 0c97 a33c e2f2 3fbc affe 23bd
000001d0: b26a 5439 adaf 383c 5226 433c 39e9 b63c
000001e0: f89d 6a3c 8758 083d da3b bc3b 0439 a53c
000001f0: dcba 253c 98b7 01bc 75e8 d5bc 99f7 3cbc
00000200: 099f f63a 9034 bbbc 67e1 96bc 333c 01bd
00000210: ed67 853c 1f60 243d 4b57 6139 9603 66bc
00000220: 25b9 343c 9c9c 923b 1234 a2bc 2160 0bbc
00000230: 1bc7 823c 112d d5ba e7c0 b0bb 14fd d83c
00000240: ca2d 74bb 9bfc cf3b 2a74 2539 5464 233a
00000250: 47ef a3bc f1f5 6f3b de51 26bc 482e dfbc
00000260: 56f8 5dbc 5226 d5bc bb16 733c 4a7e 293c
00000270: 0b32 4cbb 20a1 083d 7995 d3bc a954 b53b
00000280: c19c 4bbc 3843 a33c 3478 e33c c22c c93c
00000290: 02a0 c23b 9d35 ba39 af57 0dba 3358 69bc
000002a0: 1854 033d 8dce 01bd c910 0539 4a2f bebb
000002b0: 7e40 f6bc 079f 2b3d 304d 7b3c ad63 66bb
000002c0: ddc9 0c3c fec1 f83b 11d6 333c 827b db3b
000002d0: c3c4 bc3a b1ca fa3b 201b 2c3b a79f 13bc
000002e0: 1853 2f3b 81f0 9fbb 9da2 6c3c de5a 5e3c
000002f0: 5d30 afbc 401d bb3c 7158 053c 830d ef3b
00000300: 1ff2 d0bb 8004 563b d032 4dbc fa98 19bc
00000310: 05f0 48bc 208b e13b a33c 103c a087 2cbc
00000320: 3916 6a3c b7da a33c 85e9 873a 3c3b 6fbc
00000330: 6862 36bc 5d12 62bc 34ca b53c 65aa 33bb
00000340: 0c58 b7bc 2278 23bc 64d1 4a3c ee84 973b
00000350: 8e80 60bc 0258 91bb 21ea 893c e4c4 803c
00000360: b8cf 06bc 8eeb adbc e9dc a9bc b7e8 e63a
00000370: 94fe 253c 3d59 f8bc e68e 9c39 a498 17bc
00000380: 6a2f 00bc 364d d83c 01e9 233a 27d2 63bc
00000390: d539 863c ccc2 7d3b d379 333c ea3f 4839
000003a0: 81bc 633c 6490 cd3b c0a3 e33c cbdc e43c
000003b0: 4de5 d0bc c562 b2bb abc9 4fbc dcb6 edbc
000003c0: d24d 443d 95f2 cebc 748e c63c d384 bf3c
000003d0: f8cf afbc e889 ea3b e6ed 123c 85ce 553c
000003e0: a3f8 05bc 7d00 e5bc 4472 c83c cca6 f63b
000003f0: c099 f7bb 9835 a6bc 8b12 e6bc 2266 fabc

base_model.model.encoder.layers.0.self_attn.k_proj.lora_A.weight f4 [4, 512]
-0.03424167 -0.03888075 -0.019945966 0.018248022 0.043277375 0.0018387369 -0.025807474 0.030403417
0.06046983 -0.042546615 -0.053240746 0.026263872 0.008933373 -0.05272198 -0.014138862 -0.054186136
-0.029758012 0.01257322 -0.023545824 0.03571928 -0.008433231 -0.032942943 0.010690929 -0.0027201292
0.030815119 -0.034570295 -0.0086079715 -0.016738256 0.022777325 -0.0049549597 -0.023852702 -0.029002175
-0.03697335 -0.044660065 -0.017984046 0.025426744 -0.028428772 -0.03492248 -0.020563785 0.030061048
0.034286525 0.022955036 -0.011892366 -0.003614355 0.00090793276 0.043080464 0.031609133 0.035067942
0.017181516 0.0154316565 -0.013595531 0.02388707 -0.014301806 0.0108816335 0.020602845 0.005724817
0.041966733 -0.021629024 -0.019625228 -0.0071182004 -0.020244535 0.013266348 -0.042660724 0.03924135
0.009407539 -0.010647455 0.023168132 0.016234977 0.0014817335 0.024022311 -0.04863684 -0.011647805
0.007446554 -0.006490094 0.00663805 0.010300687 0.009130855 0.0026173056 -0.02810956 -0.021248383
-0.0112532545 0.039227802 0.000895315 -0.025666527 -0.005734032 0.030450573 0.00726334 -0.028296718
0.041568454 0.028298728 0.011629417 0.00086492085 -0.00037338494 0.04640866 0.045898616 0.026195157
0.055457972 0.022725606 0.034733836 0.025974484 0.025045888 0.04385405 0.014604598 -0.0043201842
-0.0031075997 0.03675565 -0.011644687 0.054974787 -0.005860003 -0.023964774 -0.0033400464 -0.015475416
0.017054886 0.034543768 0.019540492 -0.04115463 -0.029092131 0.039725937 1.4264504e-05 -0.029739583
-0.044156637 -0.0062713153 0.01760823 -0.04414651 -0.06019092 0.017202538 -0.006981965 -0.0011613672
0.00096718053 -0.02729693 -0.03029086 -0.015858332 0.028026702 0.018052056 -0.032171678 -0.017888336
0.05895826 -0.0025859445 0.06106314 0.021959102 -0.026478354 0.02005039 -0.045641422 -0.025307328
0.0076003685 -0.028275078 0.032637242 -0.006401435 -0.020729214 0.035244405 -0.021326214 0.02580181
-0.057877667 0.023664793 0.027622966 -0.02864696 0.033556856 -0.02288942 0.0006993129 -0.029002775
-0.0012844504 0.017949732 0.010753829 0.019262094 0.03153669 -0.010892325 0.048539735 -0.034870334
0.041528493 -0.030852506 0.0021300528 0.02395509 -0.016750468 0.018270308 0.032381043 0.00016711208
-0.030101351 -0.033662762 0.04350148 0.043905135 0.045433518 0.04716072 -0.029046116 0.014055123
0.009723184 -0.018494861 -0.024746088 -0.029175917 -0.041122116 -0.0034968401 0.012681586 0.023086358
0.023668427 0.014048415 0.0033141458 -0.0094493395 0.026894715 0.019163465 0.03646705 0.0392239
-0.010418809 0.008444986 0.0010478637 -0.029702647 0.03905327 -0.013573817 0.028925423 0.024602572
0.038085558 0.04746526 0.0027489318 0.034926884 -0.009485001 0.029608838 0.0041446383 0.010005093
-0.056132432 0.031633206 -0.01640698 0.05682726 -0.02279191 0.049150035 -0.0111606615 -0.011885595
0.0003936473 0.0062294807 -0.011293566 -0.052630346 -0.029488012 0.050481513 0.0015683387 -0.023798414
0.028834557 0.027391624 0.011083347 -0.012213682 -0.049441196 0.03295493 -0.029536799 0.008191398
0.009635367 -0.036910597 -0.030034302 0.03129483 -0.01600103 0.033954196 -0.0015633445 -0.012853116
-0.055334732 -0.015623495 0.015786633 -0.011353212 0.0064514396 0.021703228 -0.012663183 -0.022461968
00000000: fe40 0cbd 6c41 1fbd b965 a3bc e07c 953c
00000010: 9e43 313d c601 f13a 326a d3bc 9610 f93c
00000020: 36af 773d 5c45 2ebd f812 5abd 5527 d73c
00000030: 485d 123c 01f3 57bd afa6 67bc 48f2 5dbd
00000040: 13c7 f3bc e8ff 4d3c 2ce3 c0bc 614e 123d
00000050: 892b 0abc 2eef 06bd 0229 2f3c 3244 32bb
00000060: fd6f fc3c 9599 0dbd 7308 0dbc ab1e 89bc
00000070: 8397 ba3c 375d a2bb be66 c3bc f895 edbc
00000080: 5e71 17bd 79ed 36bd 4753 93bc bf4b d03c
00000090: 75e3 e8bc e00a 0fbd 6275 a8bc 9642 f63c
000000a0: 0770 0c3d 330c bc3c 33d8 42bc d1de 6cbb
000000b0: 5602 6e3a 2475 303d 9478 013d 67a3 0f3d
000000c0: 40c0 8c3c 0fd5 7c3c cabf 5ebc d1ae c33c
000000d0: 1f52 6abc e148 323c 4cc7 a83c 3f97 bb3b
000000e0: 4fe5 2b3d 5a2f b1bc 16c5 a0bc cb3f e9bb
000000f0: ded7 a5bc 195b 593c 03bd 2ebd 8abb 203d
00000100: 1422 1a3c aa72 2ebc 18cb bd3c 37ff 843c
00000110: ba36 c23a 70ca c43c 6c37 47bd 6fd6 3ebc
00000120: 3902 f43b dbaa d4bb 0084 d93b 36c4 283c
00000130: 9599 153c 1a87 2b3b 0546 e6bc 1711 aebc
00000140: 925f 38bc 55ad 203d 93b3 6a3a 9c42 d2bc
00000150: 8ce4 bbbb 7b73 f93c 5001 ee3b 85ce e7bc
00000160: af43 2a3d bcd2 e73c 4f89 3e3c dbbb 623a
00000170: e1c2 c3b9 0217 3e3d 3000 3c3d 3a97 d63c
00000180: e627 633d 0d2b ba3c 1145 0e3d 71c8 d43c
00000190: 092d cd3c 4ea0 333d 2048 6f3c 5590 8dbb
000001a0: dfa8 4bbb 188d 163d 5bc9 3ebc 3e2d 613d
000001b0: 4505 c0bb c651 c4bc aee4 5abb 998c 7dbc
000001c0: b0b6 8b3c c47d 0d3d 6213 a03c c291 28bd
000001d0: 9f52 eebc aab7 223d 9451 6f37 6da0 f3bc
000001e0: 97dd 34bd 9b7f cdbb 223f 903c f9d2 34bd
000001f0: c18a 76bd 56ec 8c3c f8c8 e4bb 0439 98ba
00000200: 638a 7d3a d09d dfbc 8a24 f8bc 55e9 81bc
00000210: 4198 e53c e8e1 933c 73c6 03bd 8f8a 92bc
00000220: 377e 713d f378 29bb 581d 7a3d 93e3 b33c
00000230: 22e9 d8bc b740 a43c 80f2 3abd 5051 cfbc
00000240: 830c f93b 23a1 e7bc a1ae 053d 21c3 d1bb
00000250: 50d0 a9bc 705c 103d 50b4 aebc 515e d33c
00000260: 2211 6dbd abdc c13c 8f49 e23c 08ad eabc
00000270: ea72 093d 9882 bbbc 1852 373a 3a97 edbc
00000280: 015b a8ba 510b 933c d430 303c 8acb 9d3c
00000290: 9e2c 013d b975 32bc 9ad1 463d 32d4 0ebd
000002a0: c819 2a3d 65be fcbc 5b98 0b3b 773d c43c
000002b0: 4738 89bc 9dab 953c fca1 043d cf3a 2f39
000002c0: 1c97 f6bc f7e1 09bd 9c2e 323d dfd5 333d
000002d0: 7f18 3a3d 992b 413d 1ff2 edbc 7547 663c
000002e0: fd4d 1f3c 8982 97bc 4fb8 cabc 5502 efbc
000002f0: aa6f 28bd 3e2b 65bb 6dc6 4f3c 9a1f bd3c
00000300: 4ae4 c13c 532b 663c 2432 593b 67d1 1abc
00000310: 4e52 dc3c b3fc 9c3c 795e 153d 3da9 203d
00000320: a7b3 2abc d75c 0a3c 7958 893a f752 f3bc
00000330: 52f6 1f3d b764 5ebc 02f5 ec3c 558b c93c
00000340: 9aff 1b3d ef6a 423d 6c27 343b 7e0f 0f3d
00000350: fa66 1bbc 3c8e f23c bfcf 873b 67ec 233c
00000360: 1feb 65bd d291 013d ee67 86bc b3c3 683d
00000370: 1ab6 babc 8c51 493d 35db 36bc ccbb 42bc
00000380: 7262 ce39 ac20 cc3b a608 39bc eb92 57bd
00000390: d890 f1bc b4c5 4e3d b790 cd3a e4f4 c2bc
000003a0: 7336 ec3c 6664 e03c ed96 353c e51b 48bc
000003b0: da82 4abd c0fb 063d 28f7 f1bc 3735 063c
000003c0: a9dd 1d3c 912f 17bd 7f0a f6bc 022f 003d
000003d0: 9814 83bc 8e13 0b3d 23e9 ccba e095 52bc
000003e0: aca6 62bd b0f9 7fbc f852 813c d302 3abc
000003f0: 9966 d33b f8ca b13c 3d79 4fbc 2902 b8bc

base_model.model.encoder.layers.0.self_attn.k_proj.lora_B.weight f4 [512, 4]
-0.0066322144 -0.0019129806 -0.009053312 0.005378374 -0.0075704358 -0.017604781 -0.0106069 -0.0020237132
-0.010571014 -0.0080083 -0.00226102 -0.016696526 -0.0120946495 0.011656791 -0.00088874676 0.0009322156
-0.023752978 -0.0062525263 0.0056124707 -0.028464522 -0.0052807434 0.006572498 -0.0011122767 -0.0028188464
0.017267615 0.0011682089 0.014154683 -0.023720652 -0.017131425 0.033299837 -0.0059210393 0.028227003
0.020715633 0.04298922 0.04381459 -0.03201751 0.004530497 -0.0040717274 -0.0022182781 0.015090656
-0.013175422 0.0134723745 -0.002175303 -0.014326312 -0.027170042 -0.015829932 -0.012302181 -0.007352281
0.04730595 0.016549971 0.032075197 0.011793927 -0.014808118 -0.040510006 -0.012863804 -0.013128405
0.0066617006 0.0063028466 0.02866201 -0.040766012 -0.0039731725 -0.010795131 0.0012888294 -0.008546118
0.029474618 0.0018774841 0.016844485 -0.005440847 -0.021376545 0.006740861 -0.012979787 -0.001705421
0.029516637 0.0004776861 -0.013685694 0.04096927 -0.01183191 0.008419617 0.021315865 -0.0010374198
0.004930636 0.017206134 0.012686225 -0.0015620723 0.024582844 0.022835363 0.022980299 0.02651795
-0.0030807545 0.0023629414 -0.011464158 0.009046845 -0.0044664275 -0.009414566 -0.02235142 0.0031228913
0.008692599 -0.016015047 -0.0009882649 -0.028486332 -0.0014776487 -0.0014748891 0.016619956 -0.00813359
0.04617032 -0.0033790043 0.011585762 0.003437618 0.0063688117 0.0032954286 0.017037334 -0.0018366203
-0.011395608 0.0034154374 0.0020566608 0.00042254027 0.0038093245 0.008494265 -0.027627947 0.0076599764
-0.0013431169 -0.010009728 0.030576585 -0.019826857 -0.0095851775 -0.015975911 -0.009085143 -0.020812733
0.032946434 -0.013132575 0.0054851533 -0.031875387 0.0071468423 0.0068313554 -0.0061702975 0.012190936
-0.005769339 -0.030112924 -0.0074023632 -0.016772518 0.01386553 0.019692125 0.034936413 -0.017874844
-0.023625238 0.0064789196 -0.023552055 0.018598301 0.0102140885 -0.01715161 0.012030419 -0.013111997
0.0025909771 -0.02043256 -0.016056165 0.008169016 -0.0015287563 -0.0028150212 0.018783068 0.0049750637
-0.023614962 0.0060562766 -0.008024929 0.0016080237 -0.00954264 0.0052114134 0.0197218 -0.006263506
-0.0006130693 0.0032913785 0.006260699 -0.018002886 -0.00010693195 -0.030430168 -0.01455773 -0.027909026
-0.003121662 -0.03170622 -0.021188138 -0.004974007 -0.023286484 0.0016149706 5.712479e-05 -0.014546426
0.016304685 0.022775559 0.0024328595 -0.010631751 -0.015573735 0.013620205 -0.020553524 -0.024434982
0.011804964 -0.00722099 -0.035067342 0.020150501 -0.0104404865 0.011692383 0.0072282874 -0.013473345
0.015401869 -0.01579367 0.0036133404 0.010428175 -0.005184012 0.030131124 0.024383 0.022378251
0.021546502 0.025150882 -0.027203823 0.042507444 -0.010885648 0.0062902668 -0.03317784 -0.0011643585
-0.006813601 -0.00043732696 0.018902319 -0.018474882 -0.016569119 0.021988248 -0.021866376 -0.004784867
-0.00091418024 -0.019571844 0.004253718 -0.005697879 -0.028430384 -0.025459865 -0.010194393 0.00874143
-0.024665715 0.0047194315 -0.018802024 0.008639584 0.026738534 0.012498849 0.021538556 0.014166488
-0.0014686416 -0.0011562713 0.033008 -0.015981345 0.012345991 0.003331182 -0.0338036 -0.0011090506
-0.010668592 0.045857046 -0.017536348 0.03543679 0.0057295403 -0.0086557 -0.0051147835 0.006074986
00000000: 0c53 d9bb fabc faba 5854 14bc 123d b03b
00000010: 6b11 f8bb e737 90bc 90c8 2dbc 46a0 04bb
00000020: 0c32 2dbc 3f35 03bc 9f2d 14bb 27c7 88bc
00000030: a328 46bc 20fc 3e3c c9fa 68ba ee5f 743a
00000040: 9b95 c2bc fee1 ccbb d1e8 b73b 6e2e e9bc
00000050: 160a adbb 1c5e d73b d0c9 91ba 65bc 38bb
00000060: d074 8d3c 961e 993a 0be9 673c d051 c2bc
00000070: 3457 8cbc 6965 083d 4705 c2bb 513c e73c
00000080: d5b3 a93c 7715 303d ed76 333d cb24 03bd
00000090: 9074 943b 206c 85bb 8860 11bb cc3e 773c
000000a0: badd 57bc 3cbb 5c3c 878f 0ebb e8b8 6abc
000000b0: b593 debc c6ad 81bc 168f 49bc 67eb f0bb
000000c0: e2c3 413d ce93 873c 4861 033d 513b 413c
000000d0: c09d 72bc d2ed 25bd b4c2 52bc 8618 57bc
000000e0: 654a da3b 1c88 ce3b 97cc ea3c 43fa 26bd
000000f0: 6331 82bb 10de 30bc f0ed a83a 0405 0cbc
00000100: c174 f13c ea15 f63a 72fd 893c 2249 b2bb
00000110: dd1d afbc 71e2 dc3b 2ca9 54bc 6f88 dfba
00000120: e0cc f13c f171 fa39 f639 60bc 65cf 273d
00000130: a1da 41bc 6ff2 093c 9c9e ae3c 08fa 87ba
00000140: 2c91 a13b e1f3 8c3c e2d9 4f3c 73be ccba
00000150: f661 c93c 3a11 bb3c 2e41 bc3c 2c3c d93c
00000160: 7ce6 49bb 94db 1a3b 2ad4 3bbc 3839 143c
00000170: 1c5b 92bb 8d3f 1abc 531a b7bc 6ca9 4c3b
00000180: 676b 0e3c fd31 83bc ab88 81ba 2b5c e9bc
00000190: aaad c1ba 1151 c1ba 9326 883c c042 05bc
000001a0: 171d 3d3d 4972 5dbb 35d2 3d3c a949 613b
000001b0: 77b1 d03b 1ef8 573b e191 8b3c c0ba f0ba
000001c0: a5b4 3abc 88d5 5f3b 0bc9 063b 6588 dd39
000001d0: dca5 793b 882b 0b3c 0154 e2bc 8a00 fb3b
000001e0: 860b b0ba d8ff 23bc bf7b fa3c ef6b a2bc
000001f0: 260b 1dbc eadf 82bc dad9 14bc 777f aabc
00000200: d7f2 063d 032a 57bc cdbc b33b c48f 02bd
00000210: 0f30 ea3b 90d9 df3b 3530 cabb 7ebc 473c
00000220: b90c bdbb 61af f6bc 868f f2bb 8566 89bc
00000230: 3f2c 633c 6151 a13c 7c19 0f3d 446e 92bc
00000240: b789 c1bc 1e4d d43b 3df0 c0bc 775b 983c
00000250: fe58 273c 8981 8cbc 3c1b 453c b4d3 56bc
00000260: 62cd 293b 2f62 a7bc 3888 83bc 56d7 053c
00000270: 8d60 c8ba 387c 38bb f3de 993c dc05 a33b
00000280: 2a74 c1bc bb73 c63b fe7a 03bc 52c4 d23a
00000290: bc58 1cbc 81c4 aa3b 9d8f a13c 193e cdbb
000002a0: 62b6 20ba 2bb4 573b 8d26 cd3b ca7a 93bc
000002b0: a740 e0b8 b048 f9bc 8c83 6ebc 78a1 e4bc
000002c0: cc94 4cbb 62de 01bd bf92 adbc fffc a2bb
000002d0: 4cc3 bebc 6cad d33a 4799 6f38 2254 6ebc
000002e0: 6791 853c cf93 ba3c 9c70 1f3b cc30 2ebc
000002f0: fb28 7fbc 4827 5f3c dd5f a8bc df2b c8bc
00000300: 9c69 413c 0e9e ecbb c6a2 0fbd aa12 a53c
00000310: 930e 2bbc 6991 3f3c 45db ec3b 4ebf 5cbc
00000320: 1f58 7c3c ba61 81bc cbcd 6c3b f0da 2a3c
00000330: a5de a9bb 8cd5 f63c dbbe c73c 9852 b73c
00000340: 4a82 b03c 3909 ce3c 8dda debc 491c 2e3d
00000350: b859 32bc 951e ce3b 7de5 07bd 639d 98ba
00000360: a144 dfbb 0849 e5b9 09d9 9a3c a358 97bc
00000370: f6bb 87bc b320 b43c 1d21 b3bc 60ca 9cbb
00000380: 99a5 6fba 2255 a0bc c662 8b3b 46b5 babb
00000390: d6e6 e8bc 3591 d0bc 6206 27bc 3738 0f3c
000003a0: c10f cabc 76a5 9a3b b406 9abc 0b8d 0d3c
000003b0: c50a db3c f9c7 4c3c a071 b03c 8f1a 683c
000003c0: 6f7f c0ba 078e 97ba 6633 073d 4feb 82bc
000003d0: d746 4a3c f64f 5a3b a575 0abd 905d 91ba
000003e0: 51cb 2ebc 99d4 3b3d 63a8 8fbc 2b26 113d
000003f0: debe bb3b a3d0 0dbc ea99 a7bb ad10 c73b
